…
-trained on a large dataset. We\u0026rsquo;ll then adapt the classifier head to our needs, which is classifying cat moods into four categories.\n# load the ViT pre-trained model weights_vit = models.ViT_B_16_Weights.DEFAULT model_vit = models.vit_b_16(weights = weights_vit) # print the model structure to understand what needs to be replaced print(model_vit) Downloading: \u0026quot;https://download.pytorch.org/models/vit_b_16-c867db91.pth\u0026quot; to /root/.cache/torch/hub/checkpoints/vit_b_16-c867db91.pth 100%|██████████| 330M/330M [00:02\u0026lt;00:00, 124MB/s] VisionTransformer( (conv_proj): Conv2d(3, 768, kernel_size=(16, 16), stride=(16, 16)) (encoder): Encoder( (dropout): Dropout(p=0.0, inplace=False) (layers): Sequential( (encoder_layer_0): EncoderBlock( (ln_1): LayerNorm((768,), eps=1e-06, elementwise_affine=True) (self_attention): MultiheadAttention( (out_proj): NonDynamicallyQuantizableLinear(in_features=768, out_features=768, bias=True) ) (dropout): Dropout(p=0.0, inplace=False) (ln_2): LayerNorm((768,), eps=1e-06, elementwise_affine=True) (mlp): MLPBlock( (0): Linear(in_features=768, out_features=3072, bias=True) (1): GELU(approximate='none') (2): Dropout(p=0.0, inplace=False) (3): Linear(in_features=3072, out_features=768, bias=True) (4): Dropout(p=0.0, inplace=False) ) ) (encoder_layer_1): EncoderBlock( (ln_1): LayerNorm((768,), eps=1e-06, elementwise_affine=True) (self_attention): MultiheadAttention( (out_proj): NonDynamicallyQuantizableLinear(in_features=768, out_features=768, bias=True) ) (dropout): Dropout(p=0.0, inplace=False) (ln_2): LayerNorm((768,), eps=1e-06, elementwise_affine=True) (mlp): MLPBlock( (0): Linear(in_features=768, out_features=3072, bias=True) (1): GELU(approximate='none') (2): Dropout(p=0.0, inplace=False) (3): Linear(in_features=3072, out_features=768, bias=True) (4): Dropout(p=0.0, inplace=False) ) ) (encoder_layer_2): EncoderBlock( (ln_1): LayerNorm((768,), eps=1e-06, elementwise_affine=True) (self_attention): MultiheadAttention( (out_proj): NonDynamicallyQuantizableLinear(in_features=768, out_features=768, bias=True) ) (dropout): Dropout(p=0.0, inplace=False) (ln_2): LayerNorm((768,), eps=1e-06, elementwise_affine=True) (mlp): MLPBlock( (0): Linear(in_features=768, out_features=3072, bias=True) (1): GELU(approximate='none') (2): Dropout(p=0.0, inplace=False) (3): Linear(in_features=3072, out_features=768, bias=True) (4): Dropout(p=0.0, inplace=False) ) ) (encoder_layer_3): EncoderBlock( (ln_1): LayerNorm((768,), eps=1e-06, elementwise_affine=True) (self_attention): MultiheadAttention( (out_proj): NonDynamicallyQuantizableLinear(in_features=768, out_features=768, bias=True) ) (dropout): Dropout(p=0.0, inplace=False) (ln_2): LayerNorm((768,), eps=1e-06, elementwise_affine=True) (mlp): MLPBlock( (0): Linear(in_features=768, out_features=3072, bias=True) (1): GELU(approximate='none') (2): Dropout(p=0.0, inplace=False) (3): Linear(in_features=3072, out_features=768, bias=True) (4): Dropout(p=0.0, inplace=False) ) ) (encoder_layer_4): EncoderBlock( (ln_1): LayerNorm((768,), eps=1e-06, elementwise_affine=True) (self_attention): MultiheadAttention( (out_proj): NonDynamicallyQuantizableLinear(in_features=768, out_features=768, bias=True) ) (dropout): Dropout(p=0.0, inplace=False) (ln_2): LayerNorm((768,), eps=1e-06, elementwise_affine=True) (mlp): MLPBlock( (0): Linear(in_features=768, out_features=3072, bias=True) (1): GELU(approximate='none') (2): Dropout(p=0.0, inplace=False) (3): Linear(in_features=3072, out_features=768, bias=True) (4): Dropout(p=0.0, inplace=False) ) ) (encoder_layer_5): EncoderBlock( (ln_1): LayerNorm((768,), eps=1e-06, elementwise_affine=True) (self_attention): MultiheadAttention( (out_proj): NonDynamicallyQuantizableLinear(in_features=768, out_features=768, bias=True) ) (dropout): Dropout(p=0.0, inplace=False) (ln_2): LayerNorm((768,), eps=1e-06, elementwise_affine=True) (mlp): MLPBlock( (0): Linear(in_features=768, out_features=3072, bias=True) (1): GELU(approximate='none') (2): Dropout(p=0.0, inplace=False) (3): Linear(in_features=3072, out_features=768, bias=True) (4): Dropout(p=0.0, inplace=False) ) ) (encoder_layer_6): EncoderBlock( (ln_1): LayerNorm((768,), eps=1e-06, elementwise_affine=True) (self_attention): MultiheadAttention( (out_proj): NonDynamicallyQuantizableLinear(in_features=768, out_features=768, bias=True) ) (dropout): Dropout(p=0.0, inplace=False) (ln_2): LayerNorm((768,), eps=1e-06, elementwise_affine=True) (mlp): MLPBlock( (0): Linear(in_features=768, out_features=3072, bias=True) (1): GELU(approximate='none') (2): Dropout(p=0.0, inplace=False) (3): Linear(in_features=3072, out_features=768, bias=True) (4): Dropout(p=0.0, inplace=False) ) ) (encoder_layer_7): EncoderBlock( (ln_1): LayerNorm((768,), eps=1e-06, elementwise_affine=True) (self_attention): MultiheadAttention( (out_proj): NonDynamicallyQuantizableLinear(in_features=768, out_features=768, bias=True) ) (dropout): Dropout(p=0.0, inplace=False) (ln_2): LayerNorm((768,), eps=1e-06, elementwise_affine=True) (mlp): MLPBlock( (0): Linear(in_features=768, out_features=3072, bias=True) (1): GELU(approximate='none') (2): Dropout(p=0.0, inplace=False) (3): Linear(in_features=3072, out_features=768, bias=True) (4): Dropout(p=0.0, inplace=False) ) ) (encoder_layer_8): EncoderBlock( (ln_1): LayerNorm((768,), eps=1e-06, elementwise_affine=True) (self_attention): MultiheadAttention( (out_proj): NonDynamicallyQuantizableLinear(in_features=768, out_features=768, bias=True) ) (dropout): Dropout(p=0.0, inplace=False) (ln_2): LayerNorm((768,), eps=1e-06, elementwise_affine=True) (mlp): MLPBlock( (0): Linear(in_features=768, out_features=3072, bias=True) (1): GELU(approximate='none') (2): Dropout(p=0.0, inplace=False) (3): Linear(in_features=3072, out_features=768, bias=True) (4): Dropout(p=0.0, inplace=False) ) ) (encoder_layer_9): EncoderBlock( (ln_1): LayerNorm((768,), eps=1e-06, elementwise_affine=True) (self_attention): MultiheadAttention( (out_proj): NonDynamicallyQuantizableLinear(in_features=768, out_features=768, bias=True) ) (dropout): Dropout(p=0.0, inplace=False) (ln_2): LayerNorm((768,), eps=1e-06, elementwise_affine=True) (mlp): MLPBlock( (0): Linear(in_features=768, out_features=3072, bias=True) (1): GELU(approximate='none') (2): Dropout(p=0.0, inplace=False) (3): Linear(in_features=3072, out_features=768, bias=True) (4): Dropout(p=0.0, inplace=False) ) ) (encoder_layer_10): EncoderBlock( (ln_1): LayerNorm((768,), eps=1e-06, elementwise_affine=True) (self_attention): MultiheadAttention( (out_proj): NonDynamicallyQuantizableLinear(in_features=768, out_features=768, bias=True) ) (dropout): Dropout(p=0.0, inplace=False) (ln_2): LayerNorm((768,), eps=1e-06, elementwise_affine=True) (mlp): MLPBlock( (0): Linear(in_features=768, out_features=3072, bias=True) (1): GELU(approximate='none') (2): Dropout(p=0.0, inplace=False) (3): Linear(in_features=3072, out_features=768, bias=True) (4): Dropout(p=0.0, inplace=False) ) ) (encoder_layer_11): EncoderBlock( (ln_1): LayerNorm((768,), eps=1e-06, elementwise_affine=True) (self_attention): MultiheadAttention( (out_proj): NonDynamicallyQuantizableLinear(in_features=768, out_features=768, bias=True) ) (dropout): Dropout(p=0.0, inplace=False) (ln_2): LayerNorm((768,), eps=1e-06, elementwise_affine=True) (mlp): MLPBlock( (0): Linear(in_features=768, out_features=3072, bias=True) (1): GELU(approximate='none') (2): Dropout(p=0.0, inplace=False) (3): Linear(in_features=3072, out_features=768, bias=True) (4): Dropout(p=0.0, inplace=False) ) ) ) (ln): LayerNorm((768,), eps=1e-06, elementwise_affine=True) ) (heads): Sequential( (head): Linear(in_features=768, out_features=1000, bias=True) ) ) Freezing the Encoder Layers Freezing the encoder layers prevents their weights from being updated during training, which means they retain the knowledge they have already gained from ImageNet. We only want to train the classifier that we will modify to our specific task.\n# freeze all layers in the model by disabling gradient computation for param
…
orchvision models), which is a linear layer designed for the original classification task, e.g. 1000 classes for ImageNet. We will replace this with a new classifier suited for our task (4 cat moods).\n# replace the classifier head # as we saw in the architecture above, the classifier is called `heads` num_features = model_vit.heads.head.in_features # ge tthe number of input features # replace with a new head for len(class_names) = 4 model_vit.heads = nn.Sequential( nn.Linear(num_features, len(class_names)) ) # move model to appropriate device model_vit.to(device) VisionTransformer( (conv_proj): Conv2d(3, 768, kernel_size=(16, 16), stride=(16, 16)) (encoder): Encoder( (dropout): Dropout(p=0.0, inplace=False) (layers): Sequential( (encoder_layer_0): EncoderBlock( (ln_1): LayerNorm((768,), eps=1e-06, elementwise_affine=True) (self_attention): MultiheadAttention( (out_proj): NonDynamicallyQuantizableLinear(in_features=768, out_features=768, bias=True) ) (dropout): Dropout(p=0.0, inplace=False) (ln_2): LayerNorm((768,), eps=1e-06, elementwise_affine=True) (mlp): MLPBlock( (0): Linear(in_features=768, out_features=3072, bias=True) (1): GELU(approximate='none') (2): Dropout(p=0.0, inplace=False) (3): Linear(in_features=3072, out_features=768, bias=True) (4): Dropout(p=0.0, inplace=False) ) ) (encoder_layer_1): EncoderBlock( (ln_1): LayerNorm((768,), eps=1e-06, elementwise_affine=True) (self_attention): MultiheadAttention( (out_proj): NonDynamicallyQuantizableLinear(in_features=768, out_features=768, bias=True) ) (dropout): Dropout(p=0.0, inplace=False) (ln_2): LayerNorm((768,), eps=1e-06, elementwise_affine=True) (mlp): MLPBlock( (0): Linear(in_features=768, out_features=3072, bias=True) (1): GELU(approximate='none') (2): Dropout(p=0.0, inplace=False) (3): Linear(in_features=3072, out_features=768, bias=True) (4): Dropout(p=0.0, inplace=False) ) ) (encoder_layer_2): EncoderBlock( (ln_1): LayerNorm((768,), eps=1e-06, elementwise_affine=True) (self_attention): MultiheadAttention( (out_proj): NonDynamicallyQuantizableLinear(in_features=768, out_features=768, bias=True) ) (dropout): Dropout(p=0.0, inplace=False) (ln_2): LayerNorm((768,), eps=1e-06, elementwise_affine=True) (mlp): MLPBlock( (0): Linear(in_features=768, out_features=3072, bias=True) (1): GELU(approximate='none') (2): Dropout(p=0.0, inplace=False) (3): Linear(in_features=3072, out_features=768, bias=True) (4): Dropout(p=0.0, inplace=False) ) ) (encoder_layer_3): EncoderBlock( (ln_1): LayerNorm((768,), eps=1e-06, elementwise_affine=True) (self_attention): MultiheadAttention( (out_proj): NonDynamicallyQuantizableLinear(in_features=768, out_features=768, bias=True) ) (dropout): Dropout(p=0.0, inplace=False) (ln_2): LayerNorm((768,), eps=1e-06, elementwise_affine=True) (mlp): MLPBlock( (0): Linear(in_features=768, out_features=3072, bias=True) (1): GELU(approximate='none') (2): Dropout(p=0.0, inplace=False) (3): Linear(in_features=3072, out_features=768, bias=True) (4): Dropout(p=0.0, inplace=False) ) ) (encoder_layer_4): EncoderBlock( (ln_1): LayerNorm((768,), eps=1e-06, elementwise_affine=True) (self_attention): MultiheadAttention( (out_proj): NonDynamicallyQuantizableLinear(in_features=768, out_features=768, bias=True) ) (dropout): Dropout(p=0.0, inplace=False) (ln_2): LayerNorm((768,), eps=1e-06, elementwise_affine=True) (mlp): MLPBlock( (0): Linear(in_features=768, out_features=3072, bias=True) (1): GELU(approximate='none') (2): Dropout(p=0.0, inplace=False) (3): Linear(in_features=3072, out_features=768, bias=True) (4): Dropout(p=0.0, inplace=False) ) ) (encoder_layer_5): EncoderBlock( (ln_1): LayerNorm((768,), eps=1e-06, elementwise_affine=True) (self_attention): MultiheadAttention( (out_proj): NonDynamicallyQuantizableLinear(in_features=768, out_features=768, bias=True) ) (dropout): Dropout(p=0.0, inplace=False) (ln_2): LayerNorm((768,), eps=1e-06, elementwise_affine=True) (mlp): MLPBlock( (0): Linear(in_features=768, out_features=3072, bias=True) (1): GELU(approximate='none') (2): Dropout(p=0.0, inplace=False) (3): Linear(in_features=3072, out_features=768, bias=True) (4): Dropout(p=0.0, inplace=False) ) ) (encoder_layer_6): EncoderBlock( (ln_1): LayerNorm((768,), eps=1e-06, elementwise_affine=True) (self_attention): MultiheadAttention( (out_proj): NonDynamicallyQuantizableLinear(in_features=768, out_features=768, bias=True) ) (dropout): Dropout(p=0.0, inplace=False) (ln_2): LayerNorm((768,), eps=1e-06, elementwise_affine=True) (mlp): MLPBlock( (0): Linear(in_features=768, out_features=3072, bias=True) (1): GELU(approximate='none') (2): Dropout(p=0.0, inplace=False) (3): Linear(in_features=3072, out_features=768, bias=True) (4): Dropout(p=0.0, inplace=False) ) ) (encoder_layer_7): EncoderBlock( (ln_1): LayerNorm((768,), eps=1e-06, elementwise_affine=True) (self_attention): MultiheadAttention( (out_proj): NonDynamicallyQuantizableLinear(in_features=768, out_features=768, bias=True) ) (dropout): Dropout(p=0.0, inplace=False) (ln_2): LayerNorm((768,), eps=1e-06, elementwise_affine=True) (mlp): MLPBlock( (0): Linear(in_features=768, out_features=3072, bias=True) (1): GELU(approximate='none') (2): Dropout(p=0.0, inplace=False) (3): Linear(in_features=3072, out_features=768, bias=True) (4): Dropout(p=0.0, inplace=False) ) ) (encoder_layer_8): EncoderBlock( (ln_1): LayerNorm((768,), eps=1e-06, elementwise_affine=True) (self_attention): MultiheadAttention( (out_proj): NonDynamicallyQuantizableLinear(in_features=768, out_features=768, bias=True) ) (dropout): Dropout(p=0.0, inplace=False) (ln_2): LayerNorm((768,), eps=1e-06, elementwise_affine=True) (mlp): MLPBlock( (0): Linear(in_features=768, out_features=3072, bias=True) (1): GELU(approximate='none') (2): Dropout(p=0.0, inplace=False) (3): Linear(in_features=3072, out_features=768, bias=True) (4): Dropout(p=0.0, inplace=False) ) ) (encoder_layer_9): EncoderBlock( (ln_1): LayerNorm((768,), eps=1e-06, elementwise_affine=True) (self_attention): MultiheadAttention( (out_proj): NonDynamicallyQuantizableLinear(in_features=768, out_features=768, bias=True) ) (dropout): Dropout(p=0.0, inplace=False) (ln_2): LayerNorm((768,), eps=1e-06, elementwise_affine=True) (mlp): MLPBlock( (0): Linear(in_features=768, out_features=3072, bias=True) (1): GELU(approximate='none') (2): Dropout(p=0.0, inplace=False) (3): Linear(in_features=3072, out_features=768, bias=True) (4): Dropout(p=0.0, inplace=False) ) ) (encoder_layer_10): EncoderBlock( (ln_1): LayerNorm((768,), eps=1e-06, elementwise_affine=True) (self_attention): MultiheadAttention( (out_proj): NonDynamicallyQuantizableLinear(in_features=768, out_features=768, bias=True) ) (dropout): Dropout(p=0.0, inplace=False) (ln_2): LayerNorm((768,), eps=1e-06, elementwise_affine=True) (mlp): MLPBlock( (0): Linear(in_features=768, out_features=3072, bias=True) (1): GELU(approximate='none') (2): Dropout(p=0.0, inplace=False) (3): Linear(in_features=3072, out_features=768, bias=True) (4): Dropout(p=0.0, inplace=False) ) ) (encoder_layer_11): EncoderBlock( (ln_1): LayerNorm((768,), eps=1e-06, elementwise_affine=True) (self_attention): MultiheadAttention( (out_proj): NonDynamicallyQuantizableLinear(in_features=768, out_features=768, bias=True) ) (dropout): Dropout(p=0.0, inplace=False) (ln_2): LayerNorm((768,), eps=1e-06, elementwise_affine=True) (mlp): MLPBlock( (0): Linear(in_features=768, out_features=3072, bias=True) (1): GELU(approximate='none') (2): Dropout(p=0.0, inplace=False) (3): Linear(in_features=3072, out_features=768, bias=True) (4): Dropout(p=0.0, inplace=False) ) ) ) (ln): LayerNorm((768,), eps=1e-06, elementwise_affine=True) ) (heads): Sequential( (0): Linear(in_features=768, out_features=4, bias=True) ) ) Define Loss Function and Optimizer Now, define the loss function and an optimizer. Since we are only training the classifier layer, ensure the optimizer is set to only update the parameters of the classifier.\n# optimizer will not change, but still show it here: criterion = nn.CrossEntropyLoss() # optimizer - only optimize the classifier parameters o
…
