…
ained on a large dataset. We\u0026rsquo;ll then adapt the classifier head to our needs, which is classifying cat moods into four categories.\n# load the ViT pre-trained model weights_vit = models.ViT_B_16_Weights.DEFAULT model_vit = models.vit_b_16(weights = weights_vit) # print the model structure to understand what needs to be replaced print(model_vit) Downloading: \u0026quot;https://download.pytorch.org/models/vit_b_16-c867db91.pth\u0026quot; to /root/.cache/torch/hub/checkpoints/vit_b_16-c867db91.pth\r100%|██████████| 330M/330M [00:02\u0026lt;00:00, 124MB/s]\rVisionTransformer(\r(conv_proj): Conv2d(3, 768, kernel_size=(16, 16), stride=(16, 16))\r(encoder): Encoder(\r(dropout): Dropout(p=0.0, inplace=False)\r(layers): Sequential(\r(encoder_layer_0): EncoderBlock(\r(ln_1): LayerNorm((768,), eps=1e-06, elementwise_affine=True)\r(self_attention): MultiheadAttention(\r(out_proj): NonDynamicallyQuantizableLinear(in_features=768, out_features=768, bias=True)\r)\r(dropout): Dropout(p=0.0, inplace=False)\r(ln_2): LayerNorm((768,), eps=1e-06, elementwise_affine=True)\r(mlp): MLPBlock(\r(0): Linear(in_features=768, out_features=3072, bias=True)\r(1): GELU(approximate='none')\r(2): Dropout(p=0.0, inplace=False)\r(3): Linear(in_features=3072, out_features=768, bias=True)\r(4): Dropout(p=0.0, inplace=False)\r)\r)\r(encoder_layer_1): EncoderBlock(\r(ln_1): LayerNorm((768,), eps=1e-06, elementwise_affine=True)\r(self_attention): MultiheadAttention(\r(out_proj): NonDynamicallyQuantizableLinear(in_features=768, out_features=768, bias=True)\r)\r(dropout): Dropout(p=0.0, inplace=False)\r(ln_2): LayerNorm((768,), eps=1e-06, elementwise_affine=True)\r(mlp): MLPBlock(\r(0): Linear(in_features=768, out_features=3072, bias=True)\r(1): GELU(approximate='none')\r(2): Dropout(p=0.0, inplace=False)\r(3): Linear(in_features=3072, out_features=768, bias=True)\r(4): Dropout(p=0.0, inplace=False)\r)\r)\r(encoder_layer_2): EncoderBlock(\r(ln_1): LayerNorm((768,), eps=1e-06, elementwise_affine=True)\r(self_attention): MultiheadAttention(\r(out_proj): NonDynamicallyQuantizableLinear(in_features=768, out_features=768, bias=True)\r)\r(dropout): Dropout(p=0.0, inplace=False)\r(ln_2): LayerNorm((768,), eps=1e-06, elementwise_affine=True)\r(mlp): MLPBlock(\r(0): Linear(in_features=768, out_features=3072, bias=True)\r(1): GELU(approximate='none')\r(2): Dropout(p=0.0, inplace=False)\r(3): Linear(in_features=3072, out_features=768, bias=True)\r(4): Dropout(p=0.0, inplace=False)\r)\r)\r(encoder_layer_3): EncoderBlock(\r(ln_1): LayerNorm((768,), eps=1e-06, elementwise_affine=True)\r(self_attention): MultiheadAttention(\r(out_proj): NonDynamicallyQuantizableLinear(in_features=768, out_features=768, bias=True)\r)\r(dropout): Dropout(p=0.0, inplace=False)\r(ln_2): LayerNorm((768,), eps=1e-06, elementwise_affine=True)\r(mlp): MLPBlock(\r(0): Linear(in_features=768, out_features=3072, bias=True)\r(1): GELU(approximate='none')\r(2): Dropout(p=0.0, inplace=False)\r(3): Linear(in_features=3072, out_features=768, bias=True)\r(4): Dropout(p=0.0, inplace=False)\r)\r)\r(encoder_layer_4): EncoderBlock(\r(ln_1): LayerNorm((768,), eps=1e-06, elementwise_affine=True)\r(self_attention): MultiheadAttention(\r(out_proj): NonDynamicallyQuantizableLinear(in_features=768, out_features=768, bias=True)\r)\r(dropout): Dropout(p=0.0, inplace=False)\r(ln_2): LayerNorm((768,), eps=1e-06, elementwise_affine=True)\r(mlp): MLPBlock(\r(0): Linear(in_features=768, out_features=3072, bias=True)\r(1): GELU(approximate='none')\r(2): Dropout(p=0.0, inplace=False)\r(3): Linear(in_features=3072, out_features=768, bias=True)\r(4): Dropout(p=0.0, inplace=False)\r)\r)\r(encoder_layer_5): EncoderBlock(\r(ln_1): LayerNorm((768,), eps=1e-06, elementwise_affine=True)\r(self_attention): MultiheadAttention(\r(out_proj): NonDynamicallyQuantizableLinear(in_features=768, out_features=768, bias=True)\r)\r(dropout): Dropout(p=0.0, inplace=False)\r(ln_2): LayerNorm((768,), eps=1e-06, elementwise_affine=True)\r(mlp): MLPBlock(\r(0): Linear(in_features=768, out_features=3072, bias=True)\r(1): GELU(approximate='none')\r(2): Dropout(p=0.0, inplace=False)\r(3): Linear(in_features=3072, out_features=768, bias=True)\r(4): Dropout(p=0.0, inplace=False)\r)\r)\r(encoder_layer_6): EncoderBlock(\r(ln_1): LayerNorm((768,), eps=1e-06, elementwise_affine=True)\r(self_attention): MultiheadAttention(\r(out_proj): NonDynamicallyQuantizableLinear(in_features=768, out_features=768, bias=True)\r)\r(dropout): Dropout(p=0.0, inplace=False)\r(ln_2): LayerNorm((768,), eps=1e-06, elementwise_affine=True)\r(mlp): MLPBlock(\r(0): Linear(in_features=768, out_features=3072, bias=True)\r(1): GELU(approximate='none')\r(2): Dropout(p=0.0, inplace=False)\r(3): Linear(in_features=3072, out_features=768, bias=True)\r(4): Dropout(p=0.0, inplace=False)\r)\r)\r(encoder_layer_7): EncoderBlock(\r(ln_1): LayerNorm((768,), eps=1e-06, elementwise_affine=True)\r(self_attention): MultiheadAttention(\r(out_proj): NonDynamicallyQuantizableLinear(in_features=768, out_features=768, bias=True)\r)\r(dropout): Dropout(p=0.0, inplace=False)\r(ln_2): LayerNorm((768,), eps=1e-06, elementwise_affine=True)\r(mlp): MLPBlock(\r(0): Linear(in_features=768, out_features=3072, bias=True)\r(1): GELU(approximate='none')\r(2): Dropout(p=0.0, inplace=False)\r(3): Linear(in_features=3072, out_features=768, bias=True)\r(4): Dropout(p=0.0, inplace=False)\r)\r)\r(encoder_layer_8): EncoderBlock(\r(ln_1): LayerNorm((768,), eps=1e-06, elementwise_affine=True)\r(self_attention): MultiheadAttention(\r(out_proj): NonDynamicallyQuantizableLinear(in_features=768, out_features=768, bias=True)\r)\r(dropout): Dropout(p=0.0, inplace=False)\r(ln_2): LayerNorm((768,), eps=1e-06, elementwise_affine=True)\r(mlp): MLPBlock(\r(0): Linear(in_features=768, out_features=3072, bias=True)\r(1): GELU(approximate='none')\r(2): Dropout(p=0.0, inplace=False)\r(3): Linear(in_features=3072, out_features=768, bias=True)\r(4): Dropout(p=0.0, inplace=False)\r)\r)\r(encoder_layer_9): EncoderBlock(\r(ln_1): LayerNorm((768,), eps=1e-06, elementwise_affine=True)\r(self_attention): MultiheadAttention(\r(out_proj): NonDynamicallyQuantizableLinear(in_features=768, out_features=768, bias=True)\r)\r(dropout): Dropout(p=0.0, inplace=False)\r(ln_2): LayerNorm((768,), eps=1e-06, elementwise_affine=True)\r(mlp): MLPBlock(\r(0): Linear(in_features=768, out_features=3072, bias=True)\r(1): GELU(approximate='none')\r(2): Dropout(p=0.0, inplace=False)\r(3): Linear(in_features=3072, out_features=768, bias=True)\r(4): Dropout(p=0.0, inplace=False)\r)\r)\r(encoder_layer_10): EncoderBlock(\r(ln_1): LayerNorm((768,), eps=1e-06, elementwise_affine=True)\r(self_attention): MultiheadAttention(\r(out_proj): NonDynamicallyQuantizableLinear(in_features=768, out_features=768, bias=True)\r)\r(dropout): Dropout(p=0.0, inplace=False)\r(ln_2): LayerNorm((768,), eps=1e-06, elementwise_affine=True)\r(mlp): MLPBlock(\r(0): Linear(in_features=768, out_features=3072, bias=True)\r(1): GELU(approximate='none')\r(2): Dropout(p=0.0, inplace=False)\r(3): Linear(in_features=3072, out_features=768, bias=True)\r(4): Dropout(p=0.0, inplace=False)\r)\r)\r(encoder_layer_11): EncoderBlock(\r(ln_1): LayerNorm((768,), eps=1e-06, elementwise_affine=True)\r(self_attention): MultiheadAttention(\r(out_proj): NonDynamicallyQuantizableLinear(in_features=768, out_features=768, bias=True)\r)\r(dropout): Dropout(p=0.0, inplace=False)\r(ln_2): LayerNorm((768,), eps=1e-06, elementwise_affine=True)\r(mlp): MLPBlock(\r(0): Linear(in_features=768, out_features=3072, bias=True)\r(1): GELU(approximate='none')\r(2): Dropout(p=0.0, inplace=False)\r(3): Linear(in_features=3072, out_features=768, bias=True)\r(4): Dropout(p=0.0, inplace=False)\r)\r)\r)\r(ln): LayerNorm((768,), eps=1e-06, elementwise_affine=True)\r)\r(heads): Sequential(\r(head): Linear(in_features=768, out_features=1000, bias=True)\r)\r)\rFreezing the Encoder Layers Freezing the encoder layers prevents their weights from being updated during training, which means they retain the knowledge they have already gained from ImageNet. We only want to train the classifier that we will modify to our specific task.\n# freeze all layers in the model by disabling gradient computation for pa
…
rchvision models), which is a linear layer designed for the original classification task, e.g. 1000 classes for ImageNet. We will replace this with a new classifier suited for our task (4 cat moods).\n# replace the classifier head # as we saw in the architecture above, the classifier is called `heads` num_features = model_vit.heads.head.in_features # ge tthe number of input features # replace with a new head for len(class_names) = 4 model_vit.heads = nn.Sequential( nn.Linear(num_features, len(class_names)) ) # move model to appropriate device model_vit.to(device) VisionTransformer(\r(conv_proj): Conv2d(3, 768, kernel_size=(16, 16), stride=(16, 16))\r(encoder): Encoder(\r(dropout): Dropout(p=0.0, inplace=False)\r(layers): Sequential(\r(encoder_layer_0): EncoderBlock(\r(ln_1): LayerNorm((768,), eps=1e-06, elementwise_affine=True)\r(self_attention): MultiheadAttention(\r(out_proj): NonDynamicallyQuantizableLinear(in_features=768, out_features=768, bias=True)\r)\r(dropout): Dropout(p=0.0, inplace=False)\r(ln_2): LayerNorm((768,), eps=1e-06, elementwise_affine=True)\r(mlp): MLPBlock(\r(0): Linear(in_features=768, out_features=3072, bias=True)\r(1): GELU(approximate='none')\r(2): Dropout(p=0.0, inplace=False)\r(3): Linear(in_features=3072, out_features=768, bias=True)\r(4): Dropout(p=0.0, inplace=False)\r)\r)\r(encoder_layer_1): EncoderBlock(\r(ln_1): LayerNorm((768,), eps=1e-06, elementwise_affine=True)\r(self_attention): MultiheadAttention(\r(out_proj): NonDynamicallyQuantizableLinear(in_features=768, out_features=768, bias=True)\r)\r(dropout): Dropout(p=0.0, inplace=False)\r(ln_2): LayerNorm((768,), eps=1e-06, elementwise_affine=True)\r(mlp): MLPBlock(\r(0): Linear(in_features=768, out_features=3072, bias=True)\r(1): GELU(approximate='none')\r(2): Dropout(p=0.0, inplace=False)\r(3): Linear(in_features=3072, out_features=768, bias=True)\r(4): Dropout(p=0.0, inplace=False)\r)\r)\r(encoder_layer_2): EncoderBlock(\r(ln_1): LayerNorm((768,), eps=1e-06, elementwise_affine=True)\r(self_attention): MultiheadAttention(\r(out_proj): NonDynamicallyQuantizableLinear(in_features=768, out_features=768, bias=True)\r)\r(dropout): Dropout(p=0.0, inplace=False)\r(ln_2): LayerNorm((768,), eps=1e-06, elementwise_affine=True)\r(mlp): MLPBlock(\r(0): Linear(in_features=768, out_features=3072, bias=True)\r(1): GELU(approximate='none')\r(2): Dropout(p=0.0, inplace=False)\r(3): Linear(in_features=3072, out_features=768, bias=True)\r(4): Dropout(p=0.0, inplace=False)\r)\r)\r(encoder_layer_3): EncoderBlock(\r(ln_1): LayerNorm((768,), eps=1e-06, elementwise_affine=True)\r(self_attention): MultiheadAttention(\r(out_proj): NonDynamicallyQuantizableLinear(in_features=768, out_features=768, bias=True)\r)\r(dropout): Dropout(p=0.0, inplace=False)\r(ln_2): LayerNorm((768,), eps=1e-06, elementwise_affine=True)\r(mlp): MLPBlock(\r(0): Linear(in_features=768, out_features=3072, bias=True)\r(1): GELU(approximate='none')\r(2): Dropout(p=0.0, inplace=False)\r(3): Linear(in_features=3072, out_features=768, bias=True)\r(4): Dropout(p=0.0, inplace=False)\r)\r)\r(encoder_layer_4): EncoderBlock(\r(ln_1): LayerNorm((768,), eps=1e-06, elementwise_affine=True)\r(self_attention): MultiheadAttention(\r(out_proj): NonDynamicallyQuantizableLinear(in_features=768, out_features=768, bias=True)\r)\r(dropout): Dropout(p=0.0, inplace=False)\r(ln_2): LayerNorm((768,), eps=1e-06, elementwise_affine=True)\r(mlp): MLPBlock(\r(0): Linear(in_features=768, out_features=3072, bias=True)\r(1): GELU(approximate='none')\r(2): Dropout(p=0.0, inplace=False)\r(3): Linear(in_features=3072, out_features=768, bias=True)\r(4): Dropout(p=0.0, inplace=False)\r)\r)\r(encoder_layer_5): EncoderBlock(\r(ln_1): LayerNorm((768,), eps=1e-06, elementwise_affine=True)\r(self_attention): MultiheadAttention(\r(out_proj): NonDynamicallyQuantizableLinear(in_features=768, out_features=768, bias=True)\r)\r(dropout): Dropout(p=0.0, inplace=False)\r(ln_2): LayerNorm((768,), eps=1e-06, elementwise_affine=True)\r(mlp): MLPBlock(\r(0): Linear(in_features=768, out_features=3072, bias=True)\r(1): GELU(approximate='none')\r(2): Dropout(p=0.0, inplace=False)\r(3): Linear(in_features=3072, out_features=768, bias=True)\r(4): Dropout(p=0.0, inplace=False)\r)\r)\r(encoder_layer_6): EncoderBlock(\r(ln_1): LayerNorm((768,), eps=1e-06, elementwise_affine=True)\r(self_attention): MultiheadAttention(\r(out_proj): NonDynamicallyQuantizableLinear(in_features=768, out_features=768, bias=True)\r)\r(dropout): Dropout(p=0.0, inplace=False)\r(ln_2): LayerNorm((768,), eps=1e-06, elementwise_affine=True)\r(mlp): MLPBlock(\r(0): Linear(in_features=768, out_features=3072, bias=True)\r(1): GELU(approximate='none')\r(2): Dropout(p=0.0, inplace=False)\r(3): Linear(in_features=3072, out_features=768, bias=True)\r(4): Dropout(p=0.0, inplace=False)\r)\r)\r(encoder_layer_7): EncoderBlock(\r(ln_1): LayerNorm((768,), eps=1e-06, elementwise_affine=True)\r(self_attention): MultiheadAttention(\r(out_proj): NonDynamicallyQuantizableLinear(in_features=768, out_features=768, bias=True)\r)\r(dropout): Dropout(p=0.0, inplace=False)\r(ln_2): LayerNorm((768,), eps=1e-06, elementwise_affine=True)\r(mlp): MLPBlock(\r(0): Linear(in_features=768, out_features=3072, bias=True)\r(1): GELU(approximate='none')\r(2): Dropout(p=0.0, inplace=False)\r(3): Linear(in_features=3072, out_features=768, bias=True)\r(4): Dropout(p=0.0, inplace=False)\r)\r)\r(encoder_layer_8): EncoderBlock(\r(ln_1): LayerNorm((768,), eps=1e-06, elementwise_affine=True)\r(self_attention): MultiheadAttention(\r(out_proj): NonDynamicallyQuantizableLinear(in_features=768, out_features=768, bias=True)\r)\r(dropout): Dropout(p=0.0, inplace=False)\r(ln_2): LayerNorm((768,), eps=1e-06, elementwise_affine=True)\r(mlp): MLPBlock(\r(0): Linear(in_features=768, out_features=3072, bias=True)\r(1): GELU(approximate='none')\r(2): Dropout(p=0.0, inplace=False)\r(3): Linear(in_features=3072, out_features=768, bias=True)\r(4): Dropout(p=0.0, inplace=False)\r)\r)\r(encoder_layer_9): EncoderBlock(\r(ln_1): LayerNorm((768,), eps=1e-06, elementwise_affine=True)\r(self_attention): MultiheadAttention(\r(out_proj): NonDynamicallyQuantizableLinear(in_features=768, out_features=768, bias=True)\r)\r(dropout): Dropout(p=0.0, inplace=False)\r(ln_2): LayerNorm((768,), eps=1e-06, elementwise_affine=True)\r(mlp): MLPBlock(\r(0): Linear(in_features=768, out_features=3072, bias=True)\r(1): GELU(approximate='none')\r(2): Dropout(p=0.0, inplace=False)\r(3): Linear(in_features=3072, out_features=768, bias=True)\r(4): Dropout(p=0.0, inplace=False)\r)\r)\r(encoder_layer_10): EncoderBlock(\r(ln_1): LayerNorm((768,), eps=1e-06, elementwise_affine=True)\r(self_attention): MultiheadAttention(\r(out_proj): NonDynamicallyQuantizableLinear(in_features=768, out_features=768, bias=True)\r)\r(dropout): Dropout(p=0.0, inplace=False)\r(ln_2): LayerNorm((768,), eps=1e-06, elementwise_affine=True)\r(mlp): MLPBlock(\r(0): Linear(in_features=768, out_features=3072, bias=True)\r(1): GELU(approximate='none')\r(2): Dropout(p=0.0, inplace=False)\r(3): Linear(in_features=3072, out_features=768, bias=True)\r(4): Dropout(p=0.0, inplace=False)\r)\r)\r(encoder_layer_11): EncoderBlock(\r(ln_1): LayerNorm((768,), eps=1e-06, elementwise_affine=True)\r(self_attention): MultiheadAttention(\r(out_proj): NonDynamicallyQuantizableLinear(in_features=768, out_features=768, bias=True)\r)\r(dropout): Dropout(p=0.0, inplace=False)\r(ln_2): LayerNorm((768,), eps=1e-06, elementwise_affine=True)\r(mlp): MLPBlock(\r(0): Linear(in_features=768, out_features=3072, bias=True)\r(1): GELU(approximate='none')\r(2): Dropout(p=0.0, inplace=False)\r(3): Linear(in_features=3072, out_features=768, bias=True)\r(4): Dropout(p=0.0, inplace=False)\r)\r)\r)\r(ln): LayerNorm((768,), eps=1e-06, elementwise_affine=True)\r)\r(heads): Sequential(\r(0): Linear(in_features=768, out_features=4, bias=True)\r)\r)\rDefine Loss Function and Optimizer Now, define the loss function and an optimizer. Since we are only training the classifier layer, ensure the optimizer is set to only update the parameters of the classifier.\n# optimizer will not change, but still show it here: criterion = nn.CrossEntropyLoss() # optimizer - only optimize the classifier parameter
…
